Python Tutorial PyTorch/src/fashion-feedforward-minimal-v-1/fashion-feedforward.pth (torch_old, 54859 bytes, 6 tensors)

linear1.weight f4 [16, 784]
-0.0018988922 -0.01578719 0.017557183 -0.0055310237 0.035586193 -0.016108697 -0.028726138 -0.03387437
-0.03253254 -0.040055797 -0.035830908 -0.051129185 -0.024905501 -0.015775623 -0.01150007 -0.035472956
-0.07356734 -0.06375617 0.005223824 -0.032705754 -5.6240256e-06 0.0060386267 -0.039933547 0.02210589
0.024452958 -0.03587529 0.0052335234 0.021064043 0.032478493 -0.007816567 -0.028429192 0.005061993
0.011437737 -0.015242756 0.022395385 -0.040042363 -0.08320603 -0.088421844 -0.09305688 -0.12908447
-0.084623665 -0.16510616 -0.13384773 -0.15613018 -0.11036727 -0.12582028 -0.072255105 -0.042825453
-0.024811776 -0.04126335 0.011220209 -0.03589284 -0.040385652 -0.0018877636 0.015017295 0.019673718
0.0055162837 0.0179711 0.03407833 0.021576611 0.02068072 0.0039032686 -0.02835067 -0.030723274
-0.1209093 -0.12293145 -0.07454456 -0.13425797 -0.15108599 -0.15251799 -0.11074135 -0.16119066
-0.13847929 -0.08037954 -0.05469293 -0.113868475 -0.073911026 -0.09961165 -0.07106418 -0.05531914
-0.008488204 -0.01841053 0.0104011465 -0.027372884 -0.0074283797 0.012092407 -0.021221755 -0.031192848
0.0019548323 -0.017418766 -0.022206517 -0.05385402 -0.10933868 -0.14023413 -0.1332573 -0.12746799
-0.15714876 -0.09638743 -0.10532879 -0.04624715 -0.02607929 0.003904807 -0.03324667 -0.052264787
-0.021459758 -4.600177e-05 -0.10862746 -0.049667973 -0.061760325 -0.03102865 -0.014819377 -0.024873883
-0.019707145 -0.026699074 -0.0049161864 -0.0023817047 0.0019040519 -0.030320179 -0.011887569 -0.0381549
-0.1548727 -0.15812132 -0.14166859 -0.12774603 -0.10820042 -0.16985619 -0.065258555 -0.043479487
0.05311962 0.061567694 0.11179873 -0.0046090563 0.015698608 -0.051188763 -0.115548335 -0.14343578
-0.045949917 -0.04521588 0.02257499 0.0032958253 -0.012505587 -0.024599459 -0.017787661 -0.0074756285
-0.040725656 -0.021742938 -0.0071179383 -0.078912765 -0.1580547 -0.1710918 -0.12786013 -0.17238708
-0.16088681 -0.13640566 -0.072576225 0.033296134 0.017401014 0.14857875 0.251208 0.07049929
-0.106099166 -0.07480769 -0.1925688 -0.12273893 -0.14820468 -0.107643515 -0.031012831 0.014808649
-0.019785399 -0.014297415 0.014712778 -0.008956653 0.00462993 -0.027860286 -0.022901507 -0.06548201
-0.18993711 -0.21486308 -0.14936331 -0.18463148 -0.17194232 -0.16334838 -0.08550751 -0.1409403
0.057992913 0.27097157 0.4517305 0.29640692 -0.12463163 -0.2764108 -0.22474746 -0.17071226
-0.11263891 -0.18664806 -0.10839557 -0.016599756 -0.021083836 -0.022278016 -0.00625359 -0.0075973477
-0.016643787 -0.077054314 -0.08819432 -0.09743434 -0.24923246 -0.26353112 -0.19612588 -0.29282138
-0.25296113 -0.28673503 -0.35528076 -0.13888723 0.05971542 0.28374752 0.5638533 0.61448646
0.027482409 -0.35139528 -0.25154632 -0.21565428 -0.14613827 -0.20807983 -0.19723235 -0.046484347
-0.007614973 -0.046459172 -0.021619685 -0.027183648 -0.075740255 -0.09972909 -0.10674417 -0.19279051
-0.22004624 -0.28183228 -0.275022 -0.22606085 -0.19072041 -0.33129427 -0.37993473 -0.34801924
0.17136802 0.36499527 0.38907853 0.067129634 -0.1740243 -0.23615931 -0.20277235 -0.09615381
0.07505686 -0.06987122 -0.16153327 0.013362322 -0.023012804 -0.06613641 -0.08530978 -0.077083774
00000000: 40e4 f8ba 2354 81bc 15d4 8f3c 973d b5bb
00000010: d4c2 113d 63f6 83bc 1453 ebbc dabf 0abd
00000020: d740 05bd 8c11 24bd 6ec3 12bd d66c 51bd
00000030: 9f06 ccbc e13b 81bc ca6a 3cbc 174c 11bd
00000040: 79aa 96bd 9892 82bd 9d2c ab3b 78f6 05bd
00000050: 03b6 bcb6 acdf c53b 5c91 23bd 6917 b53c
00000060: 9251 c83c f8f1 12bd fa7d ab3b 808e ac3c
00000070: 2b08 053d 0f11 00bc 56e4 e8bc 13df a53b
00000080: 5965 3b3c c1bc 79bc 8776 b73c 7603 24bd
00000090: ec67 aabd 8316 b5bd 9b94 bebd b82e 04be
000000a0: 2c4f adbd 9711 29be 610f 09be 97e0 1fbe
000000b0: 3c08 e2bd 08d7 00be 7cfa 93bd be69 2fbd
000000c0: 1142 cbbc c203 29bd f8d4 373c 5f04 13bd
000000d0: 6d6b 25bd d66e f7ba 1a0b 763c c72a a13c
000000e0: f1c1 b43b 2138 933c b895 0b3d 6fc1 b03c
000000f0: 9d6a a93c fbcd 7f3b aa3f e8bc 60af fbbc
00000100: 4c9f f7bd 7cc3 fbbd d1aa 98bd ec7a 09be
00000110: 49b6 1abe ad2d 1cbe 5ccc e2bd 2a0f 25be
00000120: 84cd 0dbe 079e a4bd b205 60bd e033 e9bd
00000130: aa5e 97bd 3101 ccbd 198a 91bd 5396 62bd
00000140: 1c12 0bbc aed1 96bc 9269 2a3c 193d e0bc
00000150: c469 f3bb 3b1f 463c 3fd9 adbc 2588 ffbc
00000160: a51c 003b cdb1 8ebc 71ea b5bc 0896 5cbd
00000170: f5ec dfbd 8999 0fbe 9a74 08be f886 02be
00000180: 9beb 20be c666 c5bd 9fb6 d7bd a76d 3dbd
00000190: 3ca4 d5bc cae7 7f3b a92d 08bd 9a13 56bd
000001a0: 60cc afbc 06f2 40b8 1378 debd a570 4bbd
000001b0: 65f8 7cbd cc2f febc f9cc 72bc 50c4 cbbc
000001c0: e170 a1bc 04b8 dabc f617 a1bb 6016 1cbb
000001d0: 6191 f93a 0662 f8bc 14c4 42bc 5048 1cbd
000001e0: f396 1ebe 8eea 21be 9211 11be dbcf 02be
000001f0: 2f98 ddbd c8ee 2dbe 47a6 85bd 8c17 32bd
00000200: f593 593d 682e 7c3d bcf6 e43d 9107 97bb
00000210: 5e9a 803c 4fab 51bd 9ba4 ecbd d4e0 12be
00000220: fb35 3cbd 4934 39bd 2fef b83c c6fe 573b
00000230: 3ce4 4cbc ce84 c9bc 6eb7 91bc 1ef6 f4bb
00000240: f2cf 26bd 3f1e b2bc 983d e9bb 049d a1bd
00000250: 17d9 21be b032 2fbe c4ed 02be 3d86 30be
00000260: 83bf 24be edad 0bbe d8a2 94bd 8761 083d
00000270: 928c 8e3c 0725 183e 569e 803e ef61 903d
00000280: 854a d9bd c634 99bd c130 45be 8c5e fbbd
00000290: f8c2 17be 3474 dcbd 9f0e febc fa9f 723c
000002a0: fd14 a2bc b43f 6abc dd0d 713c edbe 12bc
000002b0: abb6 973b 413b e4bc f19b bbbc 6f1b 86bd
000002c0: e07e 42be 1105 5cbe b2f2 18be 0910 3dbe
000002d0: a611 30be cc44 27be 901e afbd a752 10be
000002e0: fa89 6d3d c9bc 8a3e 3849 e73e a6c2 973e
000002f0: de3e ffbd b785 8dbe 3324 66be 32cf 2ebe
00000300: 3baf e6bd ab20 3fbe 7ffe ddbd 36fc 87bc
00000310: 02b8 acbc 6380 b6bc eaea ccbb 2cf3 f8bb
00000320: 8d58 88bc a7ce 9dbd 399f b4bd a88b c7bd
00000330: cb36 7fbe 8ded 86be 39d5 48be afec 95be
00000340: 1f84 81be efce 92be 5ce7 b5be 7438 0ebe
00000350: 2898 743d 5b47 913e b158 103f fc4e 1d3f
00000360: ca22 e13c 15ea b3be aeca 80be 7ad4 5cbe
00000370: 45a5 15be e112 55be 47f7 49be 5f66 3ebd
00000380: 0687 f9bb f94b 3ebd c41b b1bc 3eb0 debc
00000390: b51d 9bbd c43e ccbd b09c dabd e06a 45be
000003a0: cd53 61be 524c 90be afcf 8cbe 7f7c 67be
000003b0: 364c 43be 679f a9be ce86 c2be 942f b2be
000003c0: 197b 2f3e a9e0 ba3e 4d35 c73e 437b 893d
000003d0: 6d33 32be bfd3 71be 8ea3 4fbe 4aec c4bd
000003e0: 69b7 993d a418 8fbd fa68 25be a4ed 5a3c
000003f0: 5985 bcbc 8772 87bd e5b6 aebd 19de 9dbd

linear1.bias f4 [16]
0.8515369 -0.049705196 -0.100772865 -0.008844357 -0.1923068 -0.024332775 1.1246135 0.73349595
0.22316447 0.007769361 0.6639872 -0.04704658 -0.39792737 0.66927356 -0.217279 -0.9977927
00000000: 53fe 593f ad97 4bbd 0162 cebd ece7 10bc
00000010: 13ec 44be 8755 c7bc 56f3 8f3f 64c6 3b3f
00000020: 3a85 643e 2096 fe3b 11fb 293f eab3 40bd
00000030: 23bd cbbe 8355 2b3f 637e 5ebe 586f 7fbf

linear2.weight f4 [32, 16]
-0.6568785 -0.24255943 0.16035528 0.19875057 0.31930098 -0.11162931 0.58661556 -0.36098847
1.1252273 0.03281496 -0.39194897 -0.17225291 -0.919433 -0.0690826 -0.130465 -0.33220536
0.082072705 -0.14757703 0.0656918 0.1840873 -0.25898355 -0.06918939 0.3412105 -0.30980796
0.5744448 0.008758469 -0.35283196 0.036621097 -0.40612397 -0.27969974 -0.15585253 -0.618113
0.558758 -0.2135831 0.19971329 -0.21491669 0.19767997 0.084920004 -0.037099507 -0.14632629
-0.4134183 0.03227062 -0.06274825 0.097955436 -0.2768054 -0.37825847 0.28563595 0.25490963
-0.02728687 0.009585738 0.035589132 -0.10752129 -0.22396204 0.1430482 -0.4126063 0.33851227
0.0085675735 -0.008943847 -0.17973441 0.07533251 -0.47808808 -0.4954089 0.28867352 0.22423099
-0.09537231 0.22568783 -0.16996647 0.16775817 -0.27190125 0.12443573 0.020197324 0.636419
0.080735624 -0.13095534 -0.12643339 -0.07140567 -0.22786544 -0.4344787 -0.17677422 0.041200347
-0.39260456 -0.22473732 0.1533394 -0.101179406 0.091928065 -0.014105142 -0.42531353 -0.5658594
0.20371713 -0.031338345 0.44038945 0.19748648 -0.71335226 -0.27169934 -0.8043153 0.62952495
-0.050585296 0.10816465 0.021517934 -0.15832415 0.072471455 0.03800661 -0.15028429 0.5535317
0.1791549 -0.06639306 0.3190124 -0.05697181 0.043626 0.03518348 -0.481075 -0.46946678
-0.13362657 0.1147202 0.16637532 -0.089066215 -0.5211078 0.008038339 -0.6860127 0.27947462
0.07379392 0.0031193716 -0.14162393 -0.11652774 0.120826684 -0.0853386 0.027265785 -0.13409224
0.11344514 -0.0022015448 0.029505529 -0.13246675 -0.43683517 0.2010591 0.5212968 0.26573226
-0.033994693 -0.09094259 -0.5290362 -0.030337222 -0.5726893 -0.5290431 -0.2456857 0.32665992
0.42384297 -0.08713015 -0.17803532 0.1436331 -0.058866654 0.23787916 -0.21540874 0.1974704
-0.21187273 -0.08051503 0.31094015 0.061175488 -0.34213436 0.41387564 0.3779372 -0.58197516
-0.23256215 -0.017423391 0.12839696 -0.039375573 -0.13227472 -0.09744367 -0.13719673 -0.14428607
0.08270557 0.010573289 -0.4547865 0.13024479 -0.40305564 0.41030246 -0.3391117 -0.39455482
-0.45186147 0.2027525 -0.033124596 -0.24070211 -0.6138172 0.08713979 0.7582145 0.29730362
0.33746865 -0.06980897 -0.17557956 -0.23555255 -0.21823661 -0.5341884 -0.044514608 0.17002434
-0.814684 -0.08028325 -0.09308273 0.12334882 0.9576782 0.120660044 0.0967445 0.041544583
0.108902335 -0.045553446 -0.1533167 -0.22209896 -0.26314065 -0.29742178 0.24817011 -0.013343263
0.110431485 -0.11051778 0.28034237 -0.06691049 -0.022613382 0.21419378 -0.12106307 -0.20728993
0.11556793 -0.37329444 -0.042854603 -0.052712142 0.02928319 -0.13116483 0.010497841 -0.23532224
-0.2173574 -0.14734088 -0.10697207 0.23720358 -0.05568873 0.014174051 -0.24559008 -0.14772269
-0.057440314 -0.0014045284 0.88224846 0.070816875 -0.26524636 -0.04093608 -0.0040068817 -0.68217343
-0.21243376 -0.21722592 0.119323015 -0.11588008 -0.6881548 -0.14733657 0.34599507 0.26156092
-0.2878375 -0.086329885 -0.21793613 -0.019251013 0.24387647 -0.2046152 0.14734054 0.32465437
00000000: 3029 28bf 8061 78be 2d34 243e 4585 4b3e
00000010: 6b7b a33e e89d e4bd 702c 163f 7bd3 b8be
00000020: 7307 903f fb68 063d 89ad c8be 1163 30be
00000030: f65f 6bbf 2e7b 8dbd 9e98 05be d216 aabe
00000040: bc15 a83d 6f1e 17be 6c89 863d 6281 3c3e
00000050: 7e99 84be 2bb3 8dbd 25b3 ae3e 269f 9ebe
00000060: d00e 133f ae7f 0f3c 64a6 b4be 0100 163d
00000070: 7bef cfbe ce34 8fbe ce97 1fbe a73c 1ebf
00000080: c40a 0f3f 87b5 5abe a481 4c3e 1f13 5cbe
00000090: 9e6c 4a3e 8aea ad3d a7f5 17bd 8fd6 15be
000000a0: 90ab d3be 332e 043d 2882 80bd dc9c c83d
000000b0: 70b9 8dbe 18ab c1be e03e 923e 8483 823e
000000c0: b788 dfbc 800d 1d3c e9c5 113d 1f34 dcbd
000000d0: 4e56 65be 3a7b 123e 2241 d3be 7b51 ad3e
000000e0: 025f 0c3c 3789 12bc 4c0c 38be ee47 9a3d
000000f0: f6c7 f4be 3ca6 fdbe 04cd 933e cf9c 653e
00000100: 8f52 c3bd b61a 673e b10b 2ebe ccc8 2b3e
00000110: a436 8bbe 29d8 fe3d dc74 a53c 5bec 223f
00000120: b858 a53d 2819 06be c177 01be 233d 92bd
00000130: 8f55 69be fe73 debe 4d04 35be b2c1 283d
00000140: 7703 c9be 8a21 66be 0105 1d3e 2637 cfbd
00000150: c844 bc3d 4119 67bc b2c2 d9be 29dc 10bf
00000160: 399b 503e a35c 00bd ba7a e13e e539 4a3e
00000170: 419e 36bf 2d1c 8bbe 9ce7 4dbf 8c28 213f
00000180: 8732 4fbd 6e85 dd3d 6146 b03c ba1f 22be
00000190: ea6b 943d d2ac 1b3d 20e4 19be 41b4 0d3f
000001a0: 6274 373e 16f9 87bd 9855 a33e 465b 69bd
000001b0: 2db1 323d 8d1c 103d 764f f6be f35d f0be
000001c0: 67d5 08be 6df2 ea3d 4b5e 2a3e 5968 b6bd
000001d0: 5267 05bf 3db3 033c 879e 2fbf 4c17 8f3e
000001e0: 4421 973d 5f6e 4c3b dd05 11be 19a6 eebd
000001f0: fb73 f73d 01c6 aebd 7f5c df3c 7a4f 09be
00000200: ed55 e83d cb47 10bb 94b5 f13c 5da5 07be
00000210: dca8 dfbe 70e2 4d3e b573 053f 0f0e 883e
00000220: 053e 0bbd 1c40 babd eb6e 07bf c485 f8bc
00000230: c49b 12bf 5e6f 07bf 0895 7bbe f83f a73e
00000240: f201 d93e 4b71 b2bd e44e 36be 8e14 133e
00000250: 291e 71bd 9896 733e 1c94 5cbe ae35 4a3e
00000260: 2af5 58be 10e5 a4bd 8c33 9f3e 2693 7a3d
00000270: 3c2c afbe 82e7 d33e fc80 c13e 53fc 14bf
00000280: c624 6ebe 80bb 8ebc 7e7a 033e 4848 21bd
00000290: 0673 07be 8c90 c7bd 4d7d 0cbe babf 13be
000002a0: 8a61 a93d 973b 2d3c c7d9 e8be e45e 053e
000002b0: 4f5d cebe 2a13 d23e 0ca0 adbe 1703 cabe
000002c0: 635a e7be 5a9e 4f3e a8ad 07bd 9d7a 76be
000002d0: 2023 1dbf 5976 b23d 581a 423f 2e38 983e
000002e0: b1c8 ac3e 01f8 8ebd 21cb 33be b034 71be
000002f0: 6b79 5fbe 92c0 08bf f354 36bd dc1a 2e3e
00000300: 218f 50bf 8b6b a4bd 29a2 bebd 4e9e fc3d
00000310: 662a 753f 9d1c f73d fb21 c63d a72a 2a3d
00000320: 3008 df3d 4096 3abd 0eff 1cbe e96d 63be
00000330: 5fba 86be ab47 98be 4e20 7e3e b49d 5abc
00000340: e729 e23d 2557 e2bd 0989 8f3e 5e08 89bd
00000350: b33f b9bc 9d55 5b3e eaef f7bd d043 54be
00000360: e1ae ec3d 7320 bfbe 4f88 2fbd b0e8 57bd
00000370: 4de3 ef3c 1350 06be 23ff 2b3c 50f8 70be
00000380: f092 5ebe 87e0 16be 2c14 dbbd 7fe5 723e
00000390: de19 64bd 473a 683c f77b 7bbe 9e44 17be
000003a0: 8946 6bbd 2718 b8ba 09db 613f 7008 913d
000003b0: 5fce 87be 97ac 27bd 294c 83bb eba2 2ebf
000003c0: 3c88 59be 7970 5ebe a05f f43d 8952 edbd
000003d0: ea2a 30bf 66df 16be 4426 b13e 50eb 853e
000003e0: 705f 93be b9cd b0bd a62a 5fbe 4db4 9dbc
000003f0: c1ba 793e a686 51be 70e0 163e 1939 a63e

linear2.bias f4 [32]
0.97391 0.7621926 -0.7688325 0.4088822 0.113417014 0.65186906 0.059046466 1.1865776
0.55265856 0.2717001 -0.048577327 0.21859734 -0.38974017 -0.36312798 0.10037771 -0.61100525
-0.4401525 -0.21305916 -0.06121154 -0.20309132 0.045489572 -0.08625659 -0.14848067 1.7395232
0.29405403 0.83926255 0.5201631 0.46428698 -0.44396266 0.077506185 0.041547213 0.2998442
00000000: 2a52 793f 0e1f 433f 35d2 44bf 0259 d13e
00000010: 2e47 e83d e4e0 263f b5da 713d c6e1 973f
00000020: 087b 0d3f 471c 8b3e 05f9 46bd fbd7 5f3e
00000030: 068c c7be e9eb b9be d492 cd3d d76a 1cbf
00000040: ab5b e1be 2e2c 5abe f4b8 7abd 2cf7 4fbe
00000050: 4653 3a3d 4ca7 b0bd 510b 18be b2a8 de3f
00000060: 408e 963e e9d9 563f 6929 053f 06b7 ed3e
00000070: 134f e3be 90bb 9e3d 692d 2a3d 2e85 993e

linear3.weight f4 [10, 32]
-0.15144098 -0.23516253 -0.019108329 0.31946784 -0.19656117 -0.24381216 0.0655931 0.33154124
-0.42216325 0.42350668 -0.20808952 0.062435072 -0.3088473 -0.07248022 0.28618118 0.111647196
-0.11648482 0.0012321315 0.079151146 0.10128717 -0.12805124 -0.2538472 0.03004683 0.60766566
-0.50518537 0.74329954 0.85428125 -0.5903663 -0.22287297 0.055589885 0.43025804 -0.11083527
-0.40176865 -0.090585686 -0.062154148 0.6397571 0.23114344 0.08117945 0.060444947 0.10862555
-0.26083323 0.4514644 -0.13501675 -0.23370546 0.20189342 -0.2771019 -0.13327761 0.022697609
-0.20427677 0.043876376 0.7149752 0.013259429 -0.07392555 -0.14620124 -0.05373781 -0.4667549
-0.6663178 -0.09111701 -0.23561041 -0.3153274 0.64606285 -0.25922564 -0.014980374 0.023861883
-0.4418223 -0.31131914 -0.05368576 0.65785897 -0.19516206 -0.22993031 -0.1566662 0.46118143
-0.075060144 0.20912859 0.1603527 -0.036592312 -0.25007558 0.16447768 0.23277281 -0.043412145
-0.13743831 0.39020565 -0.25915572 -0.029462691 -0.1923318 0.958678 0.009460249 0.5460169
0.7695223 0.16336854 -0.32042918 -0.18198249 -0.14709234 -0.52195036 -0.01800529 -0.33939704
-0.3624938 -0.18583237 0.043478914 0.6147822 0.33020613 0.039745174 0.4098127 0.7306522
0.22101542 0.21400961 0.28633094 -0.037412524 -0.26238468 -0.17478402 0.08289883 -0.14915991
-0.2534735 -0.05633955 0.3262036 -0.10361839 -0.215448 -0.11638551 -0.08077442 -0.09745
-0.3324048 0.09429406 0.47591686 -0.059228957 -0.30511945 -0.48976645 -0.020161381 -0.29798168
-0.3252001 -0.23237655 0.30404794 0.6625615 0.32137457 0.25310868 -0.03600012 0.3357717
-0.0049951435 -0.22305053 -0.04187988 0.06331319 -0.6341657 0.28896126 -0.031588264 0.259874
-0.16487125 -0.21591814 -0.24349764 0.093515314 0.105209135 0.9319726 0.038715553 -0.011673447
0.9273823 0.1093835 -0.14587183 -0.45875093 -0.14466122 -0.66266227 -0.42000782 -0.06364108
1.3862313 0.91563445 -0.5237857 -1.0546818 -0.39462975 0.01460524 -0.16420753 -1.2562647
0.50451 -0.28696984 -0.0720575 0.32837805 0.37451616 -0.22171888 -0.32645437 -0.9153537
-0.2330122 -0.054925855 -0.10310597 0.07145436 0.08872465 -0.7990023 -0.07238361 -0.126124
-0.3906473 -1.2278858 0.038810447 0.2202001 -0.0034325118 0.38827443 -0.23247449 0.396177
-0.5746752 -0.30579668 0.08592778 0.2117784 -0.031906232 0.7246081 -0.076801956 0.6409114
-0.46695077 -0.089793965 0.06361049 -0.14437641 -0.3151089 0.25994727 -0.17022343 0.10638119
-0.26220158 -0.0034232463 0.046139996 -0.17292558 0.11077725 0.44444427 0.005671075 0.72776824
0.81979644 0.6694046 0.6112445 -0.21682476 -0.17961188 -0.15954557 0.28935763 -0.36156785
0.29979134 0.74181026 0.19878595 -0.7236816 -0.389871 -0.17416194 -0.2902478 -0.6074945
0.3930435 -0.06739937 0.09345072 -0.119281486 0.27393013 -0.2489981 -0.17814648 -0.13348316
0.76084566 0.09449773 -0.14218259 -0.044947393 -0.24303204 -0.13625015 0.45488054 -1.1040504
-0.5588239 -0.5462774 -0.599129 0.81165564 0.33348116 0.75955474 0.014420616 0.7165664
00000000: 5813 1bbe 72ce 70be 1289 9cbc 4a91 a33e
00000010: 5547 49be e5a9 79be ad55 863d c6bf a93e
00000020: c825 d8be ded5 d83e 6b15 55be ebbb 7f3d
00000030: 3c21 9ebe 8270 94bd 5786 923e 49a7 e43d
00000040: 988f eebd 797f a13a ff19 a23d a66f cf3d
00000050: dd1f 03be 43f8 81be c524 f63c fa8f 1b3f
00000060: d453 01bf e148 3e3f 2db2 5a3f 3f22 17bf
00000070: d038 64be 38b2 633d c84a dc3e 9afd e2bd
00000080: 9fb4 cdbe fd84 b9bd 5995 7ebd 1fc7 233f
00000090: deb0 6c3e 6941 a63d 1f95 773d 1377 de3d
000000a0: ef8b 85be 5826 e73e d541 0abe 7c50 6fbe
000000b0: 26bd 4e3e 4de0 8dbe ed79 08be 56f0 b93c
000000c0: ee2d 51be b7b7 333d 9d08 373f 133e 593c
000000d0: 4766 97bd c7b5 15be 2e1c 5cbd 80fa eebe
000000e0: ce93 2abf 8e9b babd db43 71be 9872 a1be
000000f0: 6064 253f 39b9 84be 3e70 75bc ff79 c33c
00000100: 8836 e2be 3965 9fbe 99e5 5bbd 7269 283f
00000110: 90d8 47be da72 6bbe 1b6d 20be f91f ec3e
00000120: 22b9 99bd ce25 563e 8033 243e d2e1 15bd
00000130: e809 80be d66c 283e ff5b 6e3e efd0 31bd
00000140: a1bc 0cbe 09c9 c73e 0fb0 84be be5b f1bc
00000150: a1f2 44be ec6b 753f 29ff 1a3c c3c7 0b3f
00000160: 6aff 443f 154a 273e 4b0f a4be 9e59 3abe
00000170: 609f 16be 8a9e 05bf d47f 93bc 73c5 adbe
00000180: ca98 b9be d74a 3ebe f216 323d 5e62 1d3f
00000190: c710 a93e d6cb 223d f8d2 d13e 060c 3b3f
000001a0: de51 623e 5625 5b3e f899 923e e03d 19bd
000001b0: 4957 86be 95fa 32be ddc6 a93d 60bd 18be
000001c0: 47c7 81be 4dc4 66bd 2904 a73e e135 d4bd
000001d0: 679e 5cbe 875b eebd 0f6d a5bd de93 c7bd
000001e0: f630 aabe 3e1d c13d 60ab f33e 109a 72bd
000001f0: 9e38 9cbe abc2 fabe 7b29 a5bc 0e91 98be
00000200: a180 a6be 1ef4 6dbe 2cac 9b3e a19d 293f
00000210: 358b a43e 7697 813e dd74 13bd 45ea ab3e
00000220: 4dae a3bb 5c67 64be 3d8a 2bbd 59aa 813d
00000230: af58 22bf bbf2 933e b262 01bd 340e 853e
00000240: 02d4 28be a519 5dbe 7257 79be f584 bf3d
00000250: e377 d73d c295 6e3f 3394 1e3d fc41 3fbc
00000260: ed68 6d3f 7504 e03d 6d5f 15be 67e1 eabe
00000270: 1222 14be 3ca4 29bf 440b d7be 4156 82bd
00000280: 0770 b13f 0567 6a3f d216 06bf d0ff 86bf
00000290: e90c cabe d14a 6f3c 0526 28be 48cd a0bf
000002a0: 9127 013f b6ed 92be e292 93bd 2b21 a83e
000002b0: 95c0 bf3e 460a 63be 0725 a7be 9f54 6abf
000002c0: c09a 6ebe eff9 60bd 3929 d3bd aa56 923d
000002d0: 45b5 b53d 6a8b 4cbf dc3d 94bd a626 01be
000002e0: ec02 c8be 5d2b 9dbf b4f7 1e3d 237c 613e
000002f0: fef3 60bb e8cb c63e cb0d 6ebe b6d7 ca3e
00000300: ea1d 13bf 6291 9cbe e7fa af3d 70dc 583e
00000310: 1cb0 02bd eb7f 393f 584a 9dbd c512 243f
00000320: 2c14 efbe e6e5 b7bd 3746 823d 69d7 13be
00000330: f455 a1be cf17 853e 0d4f 2ebe 62de d93d
00000340: 493f 86be 8b58 60bb 4bfd 3c3d 6713 31be
00000350: 2fdf e23d 338e e33e 6dd4 b93b 054f 3a3f
00000360: 2ede 513f 1a5e 2b3f 857a 1c3f 4f07 5ebe
00000370: 2dec 37be ea5f 23be af26 943e 6c1f b9be
00000380: 407e 993e 47e7 3d3f 8b8e 4b3e 3343 39bf
00000390: 2c9d c7be 8257 32be 5c9b 94be c284 1bbf
000003a0: ff3c c93e ae08 8abd 1763 bf3d da49 f4bd
000003b0: 9240 8c3e 5cf9 7ebe 086c 36be cfaf 08be
000003c0: c8c6 423f 0788 c13d 5098 11be c21a 38bd
000003d0: 64dd 78be 2985 0bbe 1ae6 e83e 8651 8dbf
000003e0: 150f 0fbf d6d8 0bbf 8560 19bf aac8 4f3f
000003f0: 0bbe aa3e 2e72 423f 7344 6c3c e570 373f

linear3.bias f4 [10]
-0.008750974 -0.7167348 0.33000043 0.3352706 0.10032273 1.1769612 0.60523564 -0.48602098
0.023013486 -1.6927611
00000000: 3f60 0fbc ef7b 37bf d1f5 a83e 97a8 ab3e
00000010: 0176 cd3d aaa6 963f b9f0 1a3f bed7 f8be
00000020: c786 bc3c 65ac d8bf
