Python Tutorial PyTorch/src/mnist-logistic-minimal-v-1/mnist-logistic.pth (torch_old, 31960 bytes, 2 tensors)

linear.weight f4 [10, 784]
-0.015935533 0.0013384633 -0.029475823 0.028500441 -0.011975264 -0.011686802 0.015744176 0.0212854
-0.009720432 -0.008918056 0.007250972 -0.00037554651 0.012021445 0.03348883 -0.00471855 -0.004738928
-0.024595011 0.021733854 -0.03391009 0.017985601 0.0241975 -0.0019760728 0.029826138 0.02467388
0.020784732 0.015976124 -0.021583533 -0.00064563006 0.018565584 -0.031803977 0.003858436 -0.02556714
0.026448278 -0.0074974275 0.018874032 -0.01629833 0.014584559 0.03521744 -0.010400076 -0.026882457
-0.023444543 -0.007786716 0.00995993 0.01362111 -0.0028332311 -0.013157235 0.0069596954 0.02695775
0.016482223 0.02923607 -0.027888542 0.016308786 -0.00153758 -0.01990828 -0.029735992 -0.0054297876
0.026463985 -0.00591173 -0.0038349512 0.018718166 0.0050458265 0.016123343 0.018176675 0.008250822
-0.020934975 -0.010050979 -0.007191295 0.03135293 -0.0072864676 -0.02972539 -0.010533486 0.013216437
-0.015468568 0.016255543 0.030713571 -0.015114966 0.013801133 0.03288802 -0.022949897 0.014810223
0.032626115 0.016709067 0.03410996 -0.020499691 -0.011800775 0.01623245 -0.02260143 0.0151111195
0.026423043 -0.0032531803 0.035000768 0.021763049 -0.012838566 -0.011713832 -0.014335025 0.019734893
-0.025804373 -0.03396748 -0.024443278 0.017565971 0.021265151 -0.041351672 -0.016515922 -0.0028680908
0.02150904 0.008004146 -0.020524183 0.0075367335 -0.013446833 -0.0046717525 6.385391e-05 -0.015461236
0.001132261 0.026733043 -0.011459544 0.0053688446 -0.032641403 -0.003757498 -0.03179761 0.016726555
-0.03429453 0.013679844 -0.0204725 -0.037363507 -0.018984932 0.021080488 -0.011229113 0.0050487313
-0.011154267 -0.011116013 0.0041594063 0.0012749957 -0.015153782 0.034327216 -0.020861134 0.031693913
0.033221826 0.017696356 0.005145012 0.010934081 -0.0008688867 -0.01117502 0.018090574 0.027123166
-6.195065e-05 -0.028480716 -0.037377723 -0.029016089 -0.024700876 -0.032274578 -0.02617573 0.0002878797
0.029274875 0.015072246 0.01448129 0.03279021 0.043248683 -0.005721914 0.029808747 -0.0015358937
-0.00041606862 0.014568105 0.010454366 -0.035069175 -0.005880562 0.01644142 0.012909792 -0.019123586
0.01654376 -0.030431809 0.008595325 -0.027437821 0.024055652 0.02458729 -0.014087322 -0.012803731
-0.014363912 -0.009854489 -0.023542078 -0.014386222 0.037749365 0.03498116 0.030850897 -0.0005534069
0.031570397 0.006846656 0.0019078293 0.0021900958 0.024577798 0.042426854 -0.014664169 0.0039733546
-0.022911398 -0.011689036 -0.033406522 0.013954135 0.021471439 -0.013164757 -0.007177802 -0.0026603176
-0.018629687 -0.00566813 -0.025175435 -0.030903276 -0.034657057 0.005618695 -0.007892512 0.002766402
-0.014180478 -0.02051585 0.0496203 0.007251332 -0.007894746 0.036453124 -0.0006319259 0.003593138
-0.004380696 -0.0009190427 -0.027060544 0.019799227 -0.003920945 0.028869007 0.034584604 0.029814778
0.031806413 0.021044312 0.0155588165 0.0343327 -0.0027622033 0.01293399 -0.022122553 0.020827984
0.022844393 0.014860432 0.0029845752 -0.0058944896 0.050496317 -0.012041478 0.014649684 0.023081776
-0.010201226 0.04176735 0.020700088 0.01681459 0.04337861 0.038663995 0.016670387 -0.012443836
-0.035765957 -0.03711179 0.007733955 -0.009328639 -0.0007629183 -0.020684997 0.00057374453 -0.0011214836
00000000: 3c8b 82bc 606f af3a 4877 f1bc c279 e93c
00000010: e633 44bc 007a 3fbc eef9 803c b85e ae3c
00000020: 7242 1fbc 0a1d 12bc 9099 ed3b 00e5 c4b9
00000030: 98f5 443c 952b 093d 119e 9abb 0249 9bbb
00000040: 7a7b c9bc 320b b23c 4ee5 0abd 8a56 933c
00000050: d639 c63c 0081 01bb f255 f43c e020 ca3c
00000060: be44 aa3c 5ce0 823c f3cf b0bc 803f 29ba
00000070: da16 983c e344 02bd d0dd 7c3b 2e72 d1bc
00000080: 0faa d83c fbac f5bb b79d 9a3c 1384 85bc
00000090: 13f4 6e3c 2a40 103d 1565 2abc 9938 dcbc
000000a0: c50e c0bc b527 ffbb f92e 233c 132b 5f3c
000000b0: bbad 39bb 7291 57bc 280e e43b 80d6 dc3c
000000c0: ba05 873c 7c80 ef3c 8376 e4bc 019a 853c
000000d0: a088 c9ba b016 a3bc e598 f3bc 5cec b1bb
000000e0: 00cb d83c 30b7 c1bb ce53 7bbb d756 993c
000000f0: 7657 a53b 1a15 843c 40e7 943c 752e 073c
00000100: d37f abbc ddac 24bc f4a4 ebbb ee6b 003d
00000110: 52c3 eebb a982 f3bc a494 2cbc c189 583c
00000120: e06f 7dbc 582a 853c 079b fb3c c3a4 77bc
00000130: 261e 623c 97b5 063d 6c01 bcbc 94a6 723c
00000140: f6a2 053d 74e1 883c e3b6 0b3d f8ee a7bc
00000150: 0a58 41bc eaf9 843c a226 b9bc a194 773c
00000160: 2375 d83c 4f33 55bb f75c 0f3d 6c48 b23c
00000170: d958 52bc 5feb 3fbc 74dd 6abc 12ab a13c
00000180: b163 d3bc 7c21 0bbd 453d c8bc 83e6 8f3c
00000190: 4134 ae3c 5f60 29bd 664c 87bc 94f6 3bbb
000001a0: ba33 b03c d223 033c 5522 a8bc b4f6 f63b
000001b0: 1b50 5cbc 8015 99bb 4fe9 8538 2051 7dbc
000001c0: 6068 943a 41ff da3c d0c0 3bbc 22ed af3b
000001d0: feb2 05bd 5b40 76bb 363e 02bd 2106 893c
000001e0: 6c78 0cbd 6d21 603c f2b5 a7bc 7a0a 19bd
000001f0: 4a86 9bbc fdb0 ac3c 50fa 37bc d46f a53b
00000200: 63c0 36bc f01f 36bc a14b 883b c21d a73a
00000210: 9247 78bc b29a 0c3d f8e4 aabc 7ad1 013d
00000220: 9c13 083d f3f7 903c 7d97 a83b dc24 333c
00000230: 00c6 63ba 6e17 37bc af32 943c 6731 de3c
00000240: 81eb 81b8 6450 e9bc 6219 19bd 26b3 edbc
00000250: 7e59 cabc 5932 04bd 7c6e d6bc 8fee 9639
00000260: ddd1 ef3c 95f1 763c ef42 6d3c 074f 063d
00000270: 8825 313d e57e bbbb 7931 f43c 0a50 c9ba
00000280: c923 dab9 10af 6e3c ca48 2b3c b2a4 0fbd
00000290: bbb1 c0bb 28b0 863c 9883 533c 11a9 9cbc
000002a0: c886 873c 214c f9bc 68d3 0c3c 48c5 e0bc
000002b0: 5c10 c53c 496b c93c 83ce 66bc bdc6 51bc
000002c0: 9d56 6bbc b974 21bc 51db c0bc 30b4 6bbc
000002d0: 149f 1a3d 6848 0f3d 05bb fc3c 8212 11ba
000002e0: f64f 013d ea59 e03b 2110 fa3a b687 0f3b
000002f0: 6157 c93c c8c7 2d3d fc41 70bc ea32 823b
00000300: afb0 bbbc 5f83 3fbc 47d5 08bd e29f 643c
00000310: dfe4 af3c feb0 57bc c433 ebbb b958 2ebb
00000320: 499d 98bc b8bb b9bb b73c cebc de28 fdbc
00000330: 8ff4 0dbd 081d b83b 984f 01bc 864c 353b
00000340: 3c55 68bc db10 a8bc a83e 4b3d 959c ed3b
00000350: f758 01bc df4f 153d d4a7 25ba da7a 6b3b
00000360: f18b 8fbb e9eb 70ba 13ae ddbc fd31 a23c
00000370: 457b 80bb b27e ec3c 96a8 0d3d 1f3e f43c
00000380: 7147 023d 1f65 ac3c 68ea 7e3c 72a0 0c3d
00000390: 1506 35bb 16e9 533c 5b3a b5bc 739f aa3c
000003a0: 2a24 bb3c 2b79 733c dd98 433b 9026 c1bb
000003b0: 3ad5 4e3d 9f49 45bc 3a05 703c fe15 bd3c
000003c0: 0b23 27bc 3e14 2b3d 3b93 a93c c0be 893c
000003d0: c5ad 313d 235e 1e3d 5690 883c 3be1 4bbc
000003e0: 537f 12bd 8802 18bd 1e6d fd3b 26d7 18bc
000003f0: 95fe 47ba 9573 a9bc 5867 163a bffe 92ba

linear.bias f4 [10]
-0.007853484 0.011204427 -0.03381442 -0.0025161575 -0.019626683 0.030937774 0.029091531 0.036060795
-0.04999267 0.015026382
00000000: e6ab 00bc c692 373c fd80 0abd 1ee6 24bb
00000010: 23c8 a0bc 3771 fd3c 5d51 ee3c 7cb4 133d
00000020: 1dc5 4cbd 3731 763c
