Python Tutorial PyTorch/src/03-logistic-regression-v-1/mnist-logistic.pth (torch_old, 31960 bytes, 2 tensors)

linear.weight f4 [10, 784]
0	0x3ccd4618	0.025057837
1	0x3cc5489c	0.024082474
2	0xbc86dba3	-0.016462153
3	0x3d06c303	0.03290082
4	0xbce02768	-0.02736254
5	0xbbee4238	-0.0072710775
6	0xbc8d6b4c	-0.017263077
7	0xbcd3befc	-0.025847904
8	0x3c417668	0.011808015
9	0x3b97dff0	0.0046348497
10	0x3ced7032	0.028984163
11	0x3ca2dc5a	0.019880462
12	0xbc897da6	-0.016783547
13	0x3cae7f99	0.021301078
14	0xbc948385	-0.01812912
15	0x3ce39815	0.02778248
16	0x3c263e24	0.010146651
17	0xba965340	-0.0011468902
18	0x3cf0f362	0.029412929
19	0x3ca982cc	0.020692252
20	0x39f29f00	0.000462763
21	0x3b2c8ee0	0.0026330277
22	0xbcaed920	-0.021343768
23	0xbcc279c8	-0.02373971
24	0x3cce2e7e	0.025168654
25	0xbc35a8ee	-0.011087639
26	0xbbb2eba4	-0.0054602195
27	0xbce71861	-0.028209867
28	0x3be289b8	0.00691339
29	0xbc9e2735	-0.019305805
30	0x3b2a2f20	0.002596803
31	0xbcd52b6e	-0.026021685
32	0xbc66b9df	-0.014082401
33	0xbce5cfe0	-0.028053224
34	0x3cb920a3	0.02259857
35	0xbc928ae0	-0.017888486
36	0xbc292b0c	-0.010325205
37	0xbc97baff	-0.018521784
38	0xbb58cbfc	-0.0033080569
39	0xbd056d97	-0.032575216
40	0xbb1ec83d	-0.0024228238
41	0xbcb13b78	-0.021634802
42	0x3c374d8d	0.011187923
43	0x3cfa7189	0.030571716
44	0xbce88324	-0.028382845
45	0xbcc22c2c	-0.023702703
46	0xbb6ab9cb	-0.0035816308
47	0x3c81d407	0.015848173
48	0x3c4d59cc	0.012533616
49	0x3c9bb892	0.019008908
50	0x3cc3fddd	0.023924762
51	0x3c511ab6	0.012762716
52	0xbb813f88	-0.003944341
53	0x3ceef8de	0.029171403
54	0x3a79ccc0	0.00095291063
55	0x3c827c72	0.01592848
56	0xbcfe69f8	-0.03105639
57	0xbd110bed	-0.035411764
58	0x3c7d13da	0.0154466275
59	0x3be53771	0.0069951345
60	0xbc8b69fd	-0.017018313
61	0x3b0183ce	0.00197624
62	0x3bfed36d	0.0077766688
63	0x3caa2615	0.020770112
64	0x3c3b0e29	0.01141695
65	0xbc7441fa	-0.014908308
66	0xbd03f13c	-0.03221248
67	0x3cd5db09	0.02610542
68	0xbd0c53e8	-0.034259707
69	0x3bfd2cbf	0.0077262814
70	0x3cbbb75a	0.022914577
71	0x396fd198	0.00022870896
72	0xbc83e954	-0.01610247
73	0xbc0b6a7e	-0.008509276
74	0x3c8441d5	0.016144672
75	0xbd131ac8	-0.035914212
76	0xbb4b54bc	-0.0031025847
77	0x3c5d6a79	0.013514155
78	0xbcc9f49b	-0.02465277
79	0x3c212aab	0.009836833
80	0x3d088924	0.033333912
81	0xbd0de687	-0.034643676
82	0x3c3e51a8	0.011616148
83	0x3caa06a8	0.020755127
84	0xbb8f1670	-0.0043666884
85	0x3b2a8100	0.0026016831
86	0xbc2fb848	-0.010725088
87	0xbccdadb6	-0.025107246
88	0xbc753969	-0.014967301
89	0xbcede5ac	-0.02904018
90	0x3c872e5e	0.016501602
91	0xbb1e9c4d	-0.002420205
92	0xbc914542	-0.01773322
93	0xbcd4d64c	-0.025981091
94	0xbb0ba951	-0.0021310637
95	0x3c1dc894	0.009630341
96	0xb9898c42	-0.00026235176
97	0xbbb0df16	-0.0053976877
98	0xbd3ae71b	-0.045630556
99	0x3c0b7d7d	0.008513805
100	0xbd097682	-0.033560283
101	0xbc13d8b3	-0.009023833
102	0xbd107e82	-0.035276897
103	0xbbe4bb27	-0.006980318
104	0xbb23b291	-0.002497826
105	0xbce53e26	-0.027983736
106	0xbc13fd39	-0.009032541
107	0xbc419d07	-0.011817223
108	0x3cc0f82d	0.02355584
109	0xb99942cd	-0.00029232205
110	0x3c13b244	0.00901467
111	0x3c8b9cae	0.017042484
112	0x3cc2190a	0.02369358
113	0xbad3f4a5	-0.0016170932
114	0xbcf524d1	-0.029924782
115	0xbcc986da	-0.024600435
116	0x3c94c081	0.0181582
117	0x3b96b891	0.0045996387
118	0x3cad68e1	0.021168174
119	0xbc9e714f	-0.01934114
120	0xbd13176d	-0.035911012
121	0xbcf1dd53	-0.02952448
122	0x3c817861	0.015804471
123	0xbb9ca718	-0.0047806613
124	0x3c8614a7	0.01636727
125	0xbc474b0c	-0.012163889
126	0xbcfc7ec8	-0.030822173
127	0x3ceda645	0.029009948
128	0xbc032851	-0.008005218
129	0x3cedc527	0.029024674
130	0x3a32252b	0.00067956996
131	0xba9f82c5	-0.001216971
132	0xbc528b34	-0.012850571
133	0xbc792c04	-0.015208248
134	0xbb843691	-0.004034825
135	0xbd0f4f0a	-0.034987487
136	0x3cee6058	0.029098675
137	0x3c6a39a5	0.01429597
138	0x3cfa4463	0.030550187
139	0xbad907c9	-0.0016558106
140	0xbc34a90e	-0.011026634
141	0x3d0988b7	0.033577647
142	0xbd05bc8e	-0.032650523
143	0x3cc366f7	0.023852808
144	0xbb247a5d	-0.0025097348
145	0x3c938be5	0.018011043
146	0xbcd5bec1	-0.026091935
147	0xbbf9b1b0	-0.007620059
148	0xbbb465eb	-0.0055053136
149	0xbcc90e96	-0.024543088
150	0xbd49b175	-0.0492415
151	0xbc341332	-0.010990905
152	0xbc2f12de	-0.010685651
153	0x3ca07726	0.019588064
154	0x3d4ca236	0.049959384
155	0x3d3f0245	0.046633024
156	0x3da7a1bb	0.081851445
157	0x3cec54d6	0.028849047
158	0x3d3764d8	0.044773906
159	0x3d253b83	0.040339958
160	0x3cf36a65	0.029713819
161	0xbcb4a11f	-0.022049485
162	0xbd08cc68	-0.033398062
163	0xbd0dceba	-0.034620978
164	0x3c855f53	0.016280806
165	0x3c34dab9	0.011038476
166	0xbc80d346	-0.015725743
167	0x3cb9f67f	0.022700546
168	0x3c23fd64	0.0100091435
169	0x3b2e4a1c	0.0026594466
170	0xbcdd6571	-0.02702591
171	0x3b8d796f	0.0043174545
172	0xbce6c44d	-0.028169775
173	0x3cf5905d	0.029976064
174	0xbc57a536	-0.013161948
175	0xbd1d3353	-0.038379025
176	0x3bc9bbdf	0.006156429
177	0xbbb0efb0	-0.0053996667
178	0xbc2d0f27	-0.010562695
179	0xbc30fc47	-0.010802335
180	0xbc97792b	-0.018490395
181	0x3d3a4a4f	0.045481022
182	0x3d4d9b51	0.05019695
183	0x3d3f3559	0.046681736
184	0x3d4447a9	0.047919903
185	0x3dbdd191	0.09268487
186	0x3d02ce1b	0.03193484
187	0x3d274452	0.04083664
188	0x3b8ac363	0.0042347177
189	0x3ce69359	0.028146433
190	0x3b2540db	0.0025215659
191	0x3abb4e58	0.0014290316
192	0xbcdd11a6	-0.026985954
193	0xbcd86396	-0.026414674
194	0xbca23243	-0.019799357
195	0xbd076cf8	-0.033062905
196	0x3d0e4a0c	0.034738585
197	0x3bc09f46	0.005878362
198	0x3c36f68f	0.011167183
199	0xbc8a0d17	-0.016851945
200	0xbcca4006	-0.024688732
201	0xbc21d970	-0.009878501
202	0xbc51549d	-0.012776521
203	0x3aa4b77e	0.0012566892
204	0xbcffa5c4	-0.031206973
205	0xbd5a8d42	-0.05335737
206	0xbca28293	-0.019837653
207	0x3c0691e6	0.008213496
208	0x3cab5015	0.02091221
209	0xbb3528fc	-0.0027642837
210	0x3bde547f	0.006784975
211	0x3d6ff404	0.05858232
212	0x3d51cc3b	0.05122016
213	0x3d0d163e	0.03444504
214	0x3daad462	0.0834129
215	0x3cc9b5f6	0.024622899
216	0x3d57ed6a	0.05271665
217	0x3c044de7	0.008075214
218	0xbc5c1c1b	-0.013434435
219	0xbd01762d	-0.03160684
220	0x3c2399e5	0.009985422
221	0x3a1fee16	0.0006100846
222	0x3c1dfb11	0.009642378
223	0xbc8c3dcd	-0.017119313
224	0x3ca57d3b	0.020201316
225	0x3d0a9e2c	0.03384225
226	0xbc989359	-0.018624948
227	0x3b490014	0.0030670213
228	0xbc9a1fad	-0.018813932
229	0xbd1e563c	-0.03865646
230	0x3bce59d7	0.006297331
231	0xbccfa6bf	-0.025348065
232	0x3bef1846	0.007296595
233	0xbb003a1b	-0.0019565884
234	0x3c8eec52	0.01744667
235	0xbc847ba2	-0.016172234
236	0x3c11fc2e	0.008910222
237	0x3d1b2531	0.037877265
238	0x3ccd8dd5	0.025092045
239	0x3cd58935	0.026066402
240	0x3d642c80	0.0557065
241	0x3d6a19f2	0.05715365
242	0x3db0522e	0.086094245
243	0x3d5770b8	0.05259773
244	0x3d8dbb98	0.06920546
245	0x3cad8413	0.021181142
246	0x3ceba0c6	0.028763186
247	0xbc6277c2	-0.013822498
248	0x3c8286a8	0.01593335
249	0xbcad831d	-0.021180684
250	0x3c6baca8	0.014384426
251	0x3a1a45d7	0.0005885041
252	0x3b4de59a	0.003141737
253	0x3c092df5	0.008372773
254	0x3d083e94	0.033262804
255	0xbcbe7644	-0.023249753

linear.bias f4 [10]
0	0xbda594de	-0.08085035
1	0x3df71554	0.12064615
2	0xbd2ffb13	-0.042964052
3	0xbcc611f2	-0.024178479
4	0xb9e5e440	-0.00043848343
5	0x3d1436ff	0.03618526
6	0x3b97a979	0.004628357
7	0x3c93f39f	0.018060504
8	0xbda5b0d5	-0.08090369
9	0xbd320a99	-0.043467138
